ai-engine/model.pth (torch, 2176 bytes, 3 tensors)

fc1.weight f4 [16, 3]
000000 a0 6f a1 3d 33 ff 0e bf 10 d4 af bd 96 f2 5a be
       0.07882619 -0.55858153 -0.085853696 -0.21381602
000010 e0 42 05 3f 94 33 0c 3f 90 71 e3 3e 10 d4 a3 bd
       0.5205517 0.547662 0.4442258 -0.07999432
000020 4e 53 d7 3e 80 06 7b 3d c8 08 e9 3e bc a0 c4 3e
       0.42055744 0.061285496 0.45514512 0.3840388
000030 ae 82 4a be b0 46 4b bd 1b e9 cb be 2e d2 a1 be
       -0.19776413 -0.04962796 -0.39826283 -0.31605667
000040 80 50 1e bd 32 37 0e 3f 08 12 89 be 8c 2b fa bd
       -0.03865099 0.5555297 -0.2677157 -0.12215337
000050 28 f5 f1 3d 02 81 84 3e 5a 34 c9 3e dc 92 72 be
       0.11814338 0.25879675 0.39297754 -0.23688835
000060 56 f3 a8 3e cc 71 19 be 00 73 12 bc 10 0a 90 3e
       0.3299815 -0.14984816 -0.008938551 0.28132677
000070 74 a6 0e 3f 78 bc ac 3e 74 97 a4 bd 98 df fb be
       0.5572274 0.3373754 -0.080367 -0.49194026
000080 dc 4f 02 bf 84 c3 69 3e 20 1b 54 3e da 4f be 3e
       -0.50903106 0.2282849 0.20713472 0.37170297
000090 08 9c 25 3e a4 b4 1f 3e 3e c8 3b be 94 86 b6 3e
       0.16172802 0.15596253 -0.18338105 0.3564955
0000a0 a0 9f c1 bc 7c 3b ac 3e ca 42 97 3e 42 fb 0c bf
       -0.023635685 0.33639133 0.29543144 -0.5507089
0000b0 04 9d a6 3e 12 8c d8 be 40 c5 81 3d 34 b5 d9 3e
       0.32541668 -0.42294365 0.063364506 0.4252106

fc1.bias f4 [16]
000000 84 46 93 3e e2 90 0d 3f e6 f8 aa be b6 8d a1 be
       0.28764737 0.552992 -0.3339302 -0.3155343
000010 03 c0 bb be 38 b6 fa bd 74 eb 39 be ce 82 30 be
       -0.3666993 -0.12241787 -0.18156224 -0.17237398
000020 ec c7 55 3e ec d9 df be 76 a9 96 be 00 52 e2 3e
       0.20877045 -0.4372095 -0.29426163 0.44203186
000030 00 47 21 bc bb 6a 06 bf ed 62 a4 be a8 bb c2 3d
       -0.009843588 -0.5250661 -0.32106724 0.09508449

fc2.weight f4 [1, 16]
000000 10 65 95 bc 10 67 96 bd 00 db 22 bc 44 7f 49 3e
       -0.018236667 -0.07343876 -0.009939909 0.19677454
000010 48 bd 2a 3d 72 80 7a 3e 08 46 d0 3d 10 77 80 bc
       0.04168442 0.2446306 0.101696074 -0.015681773
000020 6c 3a 5e be 48 b2 01 bd 78 03 4e 3e a0 a9 4f bd
       -0.21701974 -0.031664163 0.2011851 -0.050698876
000030 7e cd 0a 3e 18 bf a9 bd f0 c2 4e 3d 44 4b 44 3e
       0.13554952 -0.08288401 0.050478876 0.19169337
