ai_engine/model.pth (torch, 5757 bytes, 5 tensors)

fc.0.weight f4 [32, 6]
000000 71 61 25 3e b6 76 8b 3e dc a2 06 bd bd 1f 13 3f
       0.16150452 0.27239007 -0.03287016 0.57470304
000010 a5 08 85 bd 32 da 12 3e 6a ff d8 be 30 a0 38 3d
       -0.064957894 0.14341047 -0.42382365 0.04507464
000020 ed e2 4f 3e 62 4d b8 be f6 92 4b 3e 3f 32 8d 3d
       0.20301409 -0.35996538 0.1988028 0.06894349
000030 2a 7a ea 3d 1d 74 f3 bd ad ab 86 3d 03 b3 14 be
       0.11449082 -0.11887381 0.06575713 -0.14521413
000040 c3 75 13 3e 2d 76 9b bd 22 55 00 bf 4c 74 c3 bd
       0.14400391 -0.075908996 -0.501299 -0.09543666
000050 f6 9b 40 be 17 1a 44 bd 00 cb 29 be 63 a5 e0 3e
       -0.18809494 -0.047876444 -0.16581345 0.4387618
000060 fa 4c cd be ca 12 85 be 67 17 ec bd 16 5c 7b be
       -0.4009779 -0.25990897 -0.11527901 -0.24546847
000070 f3 0c 29 bd a2 72 ce be eb 9c 5f 3e 9a 62 f6 be
       -0.041272115 -0.40321833 0.21837203 -0.48122102
000080 02 92 32 3e 2f f3 1f bd 25 63 66 be 29 ff fa 3d
       0.1743851 -0.039050277 -0.22498758 0.12255699
000090 00 d6 4d bd 85 69 91 3e 5a 6e b8 3d bf cb 95 3d
       -0.050252914 0.28400818 0.09005423 0.07314252
0000a0 f5 c7 dc 3d 91 8a 0c bd ff b5 be bd 34 2a 18 3e
       0.10780326 -0.034311835 -0.09312057 0.14859849
0000b0 9f 0b d3 3d c8 17 93 be bb ce 92 3d 5c ec bf bd
       0.10304951 -0.2872908 0.07168337 -0.09371254
0000c0 fb aa ee 3d ab c5 a9 be ed e9 ce be 3e 84 21 be
       0.11653706 -0.3315862 -0.40412846 -0.15773103
0000d0 55 53 a0 be fd 02 7b 3e 04 6a 99 3d 5a 63 33 3e
       -0.31313577 0.24512859 0.07490924 0.17518368
0000e0 3b f6 4d 3e df 9d 4c 3e 33 90 a9 3e 04 2c c9 be
       0.2011346 0.19982098 0.33117828 -0.39291394
0000f0 81 fa 30 be 09 30 c1 be 01 2a ea 3d c4 da 32 3d
       -0.1728306 -0.3773196 0.11433793 0.043665662
000100 c7 02 9d 3d f5 b4 77 bb 25 ed 57 3e f7 f2 bc be
       0.07666545 -0.0037797068 0.21086557 -0.36904117
000110 37 0d ac be 20 a9 ae be 19 d3 71 3e ba df 3f 3c
       -0.33603832 -0.34113407 0.23615684 0.011711055
000120 5b 3e 9e 3e 55 2c cd be c1 28 03 bf 0b 8b b5 be
       0.30906948 -0.40072885 -0.5123406 -0.35457644
000130 6a 5e bb be 40 6b 7a 3e a3 84 c2 3d d5 a8 9d 3e
       -0.3659547 0.24454975 0.09497955 0.3079287
000140 c7 f0 a6 be 31 5e cb be 1e cf 47 3e b3 66 85 be
       -0.32605574 -0.397203 0.19512603 -0.26054916
000150 3c 01 82 3e a0 8c a9 bd 65 6c 93 3e 7f 67 a2 be
       0.25391567 -0.08278775 0.28793636 -0.31719586
000160 8a f7 52 be b7 eb 85 3e 9b c1 b0 3d 4a 2b d5 bd
       -0.20602241 0.261564 0.08630677 -0.10408647
000170 43 2f 79 3e 8a 18 8e 3e f8 93 97 be 7e 2e 5f be
       0.24334435 0.27753097 -0.2960508 -0.21795079
000180 41 c3 81 3e c1 13 7c be 6f 83 58 be ea 3f ca be
       0.2534428 -0.2461691 -0.21143888 -0.39501888
000190 14 67 6f be 3f d7 80 bc 94 20 5c be f4 58 8f be
       -0.23379165 -0.015727637 -0.21496803 -0.27997553
0001a0 5f 9d 55 3d 5d 3a a7 3a b6 46 e0 be ce 27 3c bc
       0.052152034 0.0012758482 -0.43803948 -0.0114841
0001b0 8a e6 be be 7a 55 84 be 0e 3d 9c 3e 59 4a 67 3e
       -0.37285262 -0.25846463 0.3051533 0.22586955
0001c0 ae 65 7f 3e dd f3 c2 be 4b 36 a7 be 7e c9 29 be
       0.24941131 -0.38076678 -0.3265861 -0.1658077
0001d0 e1 59 7d 3d db 90 e8 be 8a b7 af 3d 03 9a 8c ba
       0.061853293 -0.45423016 0.08579929 -0.0010727051
0001e0 32 4a 94 3a 6e 8e 1b be 2d c0 e7 bc ea a3 8d be
       0.0011313616 -0.15191051 -0.028289879 -0.2766412
0001f0 f4 78 8f be 92 e3 73 be 9c 08 10 be 79 86 a4 be
       -0.28021967 -0.2381728 -0.14065784 -0.32133844
000200 07 5a db 3e 2e ef a5 bd e8 ee bf 3e 77 41 02 3e
       0.42842123 -0.081022605 0.37486959 0.12720285
000210 c0 38 f4 be ab 51 98 3e f8 e6 f9 bd 91 ef 2e 3e
       -0.47699547 0.29749808 -0.12202257 0.17083575
000220 68 85 f6 bd 75 cd cf be e8 90 8b 3c 23 12 f3 bd
       -0.12037164 -0.4058644 0.01703687 -0.11868694
000230 7f b3 69 3e 58 04 20 be 2a 0e aa 3e 35 83 62 be
       0.22822379 -0.15626657 0.3321393 -0.22120364
000240 06 f2 42 be c1 4f b2 3c 75 b2 7a 3e fe 80 03 3f
       -0.19037637 0.021766545 0.24482138 0.513687
000250 54 e0 be 3e 34 bd a5 be 78 f8 2c 3c db 4f 7e be
       0.37280524 -0.32370913 0.010557286 -0.2483515
000260 db 0f 09 be a6 73 9c be 9d 8c b7 3e a2 69 99 be
       -0.13384955 -0.30556983 0.35849467 -0.29963404
000270 e8 e8 a2 3d 22 1f 9a 3d 0d df 30 3e 8b 3f 90 bc
       0.079545796 0.07525469 0.17272587 -0.017608425
000280 73 77 be 3e 89 9d ac 3d ed c8 a7 bd 69 3c dc be
       0.37200508 0.08428485 -0.081926204 -0.4301484
000290 76 ae 16 3e b9 dc 7a bd 64 84 3f be a0 09 e0 3e
       0.14714989 -0.061245654 -0.18702847 0.43757343
0002a0 8b 08 dd 3c 31 ce 98 be e9 96 53 be 7a b6 9f bc
       0.026981613 -0.29844812 -0.20663036 -0.019496191
0002b0 93 f6 3d 3e 61 a6 d5 bd 2a cf ef be a6 dd a6 be
       0.18551092 -0.10432125 -0.4683774 -0.3259098
0002c0 47 1c c4 be 39 12 70 3e 73 a6 85 3e 66 c8 c4 be
       -0.38302824 0.23444451 0.26103553 -0.38434142
0002d0 1e 81 98 bd 34 7d 81 3d f3 9b e3 bb 67 e0 14 be
       -0.07446502 0.06322709 -0.006946081 -0.14538728
0002e0 6c 8f a2 3d 82 47 94 3d 3f 7b 10 3c 34 1e 27 be
       0.07937512 0.072402015 0.008818447 -0.16320115
0002f0 ef 13 5f be 35 25 63 3e 5e 2f 4c be 8a 1b 63 be
       -0.21784948 0.22182162 -0.19939944 -0.22178474

fc.0.bias f4 [32]
000000 3c 39 b2 3e b0 5e 8d 3e 05 85 40 be f2 50 0b 3d
       0.3480929 0.27611303 -0.18800743 0.034012742
000010 e6 3c 97 bd 42 bb 1b be 5f 0f 32 3e 76 07 23 bd
       -0.07384662 -0.15208152 0.17388676 -0.039802037
000020 39 da eb be 02 60 ac bd 70 e7 c7 3e 3a 45 1c 3d
       -0.46064928 -0.084167495 0.3904376 0.038151957
000030 dc cf b7 bc 34 bd 8b be c7 a2 4a be 6a 3c bb be
       -0.022437982 -0.27292788 -0.19788657 -0.3656953
000040 ba ff 7e be 34 7f c9 3e 7a 46 cd 3e 8b f4 cb 3e
       -0.2490224 0.3935486 0.40092832 0.3983501
000050 c7 c3 b8 be d7 00 48 be 49 84 de 3d 00 02 f9 3e
       -0.36086866 -0.1953157 0.10865075 0.48634338
000060 d0 ee 15 3e 9f 69 06 be 7f c3 6a 3e ce ed f3 bd
       0.14641881 -0.13126229 0.22926138 -0.11910592
000070 27 05 9d be c9 06 cd 3e 60 1a a8 be 7d 72 d9 bd
       -0.30667993 0.4004424 -0.32832623 -0.1061754

fc.2.weight f4 [16, 32]
000000 21 93 71 be 7c 9e 6e 3d 0c 4d 97 3d c0 f1 83 3d
       -0.23591281 0.05825661 0.073877424 0.064425945
000010 13 69 3b be 4c 25 70 be 15 84 50 be ef fa 92 3d
       -0.18301801 -0.23451728 -0.20362885 0.07176768
000020 1d d1 ad 3d 63 aa b5 3d 88 56 05 3d ea e7 7a bc
       0.08487151 0.08870389 0.032553226 -0.015314082
000030 01 53 7c bd 3d 29 47 be a3 17 1b be f2 50 29 be
       -0.061602596 -0.19449325 -0.15145735 -0.16534784
000040 72 34 94 3d d8 bf b1 bd 35 da c3 bd eb 5a d0 bd
       0.07236566 -0.086791694 -0.09563104 -0.10173591
000050 a7 f1 03 bd 5e e5 3c be ce 8f ec bd 11 9e b9 ba
       -0.03221288 -0.18446872 -0.11550866 -0.0014161487
000060 af 96 e6 bd 45 05 49 3d 32 23 ef bd 34 ca 04 be
       -0.11259209 0.04907729 -0.11676635 -0.1296776
000070 45 bf ba bd a4 3e 15 be b8 c0 e9 bd 61 54 2c be
       -0.09118513 -0.14574677 -0.11413711 -0.16829063
000080 a8 de 3d 3d 8f 0d fc bd 32 26 2e 3d 95 49 a4 3d
       0.04635492 -0.123072736 0.042516895 0.08021847
000090 7d 53 01 3e 82 53 29 be da 2e 9d 3d d5 a2 08 be
       0.12629505 -0.16535762 0.07674952 -0.13343365
0000a0 66 57 86 3d dd 32 f4 3d 67 3c cc bc 23 30 b3 ba
       0.06559639 0.11923764 -0.024931146 -0.0013670962
0000b0 6a b4 26 bd fa 25 17 be 4f be ad 3d 7d b3 33 be
       -0.0406994 -0.1476058 0.08483564 -0.17548938
0000c0 ea c0 e0 3d 76 71 07 3e ee 30 2b 3e 87 cb 2a bd
       0.109742954 0.13226876 0.16717884 -0.041698005
0000d0 ab bb 14 be 64 cb 22 3d 03 00 c8 3d 99 a5 64 be
       -0.14524715 0.03974475 0.09765627 -0.22328795
0000e0 46 cc ba bd ac 06 d9 bd 1d 49 86 bd 48 33 b2 bd
       -0.09120993 -0.10596976 -0.06556914 -0.08701187
0000f0 5b fd 93 bd 6d 53 c4 bd fe 05 2c be cb 59 d5 3d
       -0.07226058 -0.09586225 -0.16799161 0.10417517
000100 fa 78 4a 3e 95 45 d9 3d ca 36 2a 3d 7f af 67 3e
       0.19772711 0.10608975 0.041556157 0.2262554
000110 59 eb c6 bd 50 b5 84 bd 78 3b b8 3d 37 5c c5 bc
       -0.09712858 -0.06479895 0.08995718 -0.024091823
000120 ff 68 c7 bc ba 51 1b bd f5 dd b2 3d da f5 e1 3c
       -0.024342058 -0.037919737 0.08733741 0.027583051
000130 30 f8 84 bb 75 52 c7 bd a1 fe f1 bd a4 58 ad bd
       -0.0040579066 -0.09732524 -0.11816145 -0.084641725
000140 06 89 13 bd b8 13 0a 3f 7d 5c 1b 3e de 7b b3 3e
       -0.036019348 0.5393634 0.15172 0.3505544
000150 eb 3a 7b bd 8a 2c e8 b9 8f fe af 3e e5 e2 16 3e
       -0.061335485 -0.00044283672 0.343739 0.14734991
000160 19 db 5a bd fe f8 c5 3d b6 a8 4e 3e 40 e6 1a 3e
       -0.053431604 0.09666632 0.20181546 0.15126896
000170 55 0e 65 3d 19 e2 c4 3e 5b 9f d2 3c 19 76 b0 3d
       0.05592187 0.3845375 0.025710752 0.08616275
000180 ec a6 46 be 10 23 df bd 7d 78 88 3d fb 38 7b 3c
       -0.19399613 -0.108953595 0.06663606 0.015333409
000190 b2 dd 2f be 00 a6 57 be 62 80 44 be 61 ba 7a be
       -0.17174414 -0.21059418 -0.19189599 -0.2448516
0001a0 e5 2a 49 be 25 85 d4 bd 32 6e 47 3d 26 07 24 bd
       -0.19645269 -0.10376958 0.048689075 -0.04004588
0001b0 be ca 51 be b6 b3 4e be 0a e8 e5 3c 50 a6 06 be
       -0.20487496 -0.20185742 0.028064746 -0.1314938
0001c0 e0 25 a8 bd aa d2 11 3c 0f a6 1b be 36 76 c4 bd
       -0.08210349 0.008900324 -0.15200065 -0.095928594
0001d0 94 1b 7c bc b7 a0 d0 bd d7 35 19 be 97 43 69 be
       -0.0153874345 -0.10186904 -0.14961945 -0.2277969
0001e0 36 27 54 be 82 6c 1e be 74 e3 cb 3d 94 3c 27 be
       -0.20718083 -0.1547108 0.099554926 -0.16331702
0001f0 d6 b2 36 be 96 84 cb bc dc 82 ad bc 81 d8 16 3d
       -0.17841658 -0.024843495 -0.021180563 0.036827568
000200 78 45 de 3d 36 db 4c 3e 59 1f 4b be 88 4d 20 3f
       0.10853094 0.20005497 -0.19836177 0.62618303
000210 b5 09 32 3e c2 bd 21 3d ca 0d 15 be 31 cf 27 3e
       0.17386515 0.039487608 -0.14556041 0.16387631
000220 5d 9e 3e 3d f2 30 33 be ff e9 45 bd ff 27 be 3c
       0.046537746 -0.1749914 -0.04831886 0.023212431
000230 4d de fe 3b 42 4f 7a bd ae b4 6f bd 65 48 09 be
       0.007777965 -0.061110742 -0.05852192 -0.13406523
000240 f6 d6 77 bd 13 51 e5 3e 9d 67 01 3f 3d 3f d2 3e
       -0.060507737 0.44788417 0.50548726 0.41063872
000250 94 ca d2 bd da 59 91 bd 7b 85 07 3c ca 7b a7 bd
       -0.10292545 -0.07097216 0.00827157 -0.08177908
000260 a6 63 9c 3d b9 22 91 3d 99 58 e5 3d 4d 5a d5 bd
       0.07636194 0.07086701 0.11198539 -0.10417614
000270 b9 81 26 3d 8f 70 d9 3d f7 12 26 3d ed a4 20 3e
       0.040651057 0.10617172 0.04054543 0.15687914
000280 67 90 e7 3c 60 7b 92 3e 7f e2 f8 bd 01 10 a9 3e
       0.028267099 0.28609753 -0.12152576 0.33020023
000290 3b 89 20 3e 5e b1 70 3d 24 ba 0d bd c1 20 bd bc
       0.1567735 0.0587629 -0.034601346 -0.023086907
0002a0 9b 9d 45 3e 65 3d 2b 3d ee 12 43 3e 9c ef 33 bd
       0.19298403 0.041806597 0.1905019 -0.04392968
0002b0 cc 54 44 be f9 f7 74 bd f0 c1 9c bc 55 28 a7 bd
       -0.19172972 -0.059806798 -0.019135445 -0.081619896
0002c0 cd 31 f7 3c ad 67 09 3f ab ef 82 3e 75 4d 9c 3e
       0.030175114 0.5367382 0.25573477 0.30527845
0002d0 22 32 32 bd 57 0e 44 be 20 65 04 bc cb cb 2c bd
       -0.04350484 -0.19146095 -0.008080751 -0.04218654
0002e0 9d 61 08 bc c9 e0 5c 3d 8d 09 34 bd 7d d8 be 3b
       -0.008324054 0.05392531 -0.04395442 0.0058241473
0002f0 e7 0d b6 3d f7 e0 8d 3e 29 4f 13 3e 3f 00 6f bd
       0.088893704 0.27710697 0.14385666 -0.058349844
000300 c0 6f 07 be 6b 24 a1 3b 89 1a 36 be 88 aa ec bd
       -0.13226223 0.0049176714 -0.1778356 -0.11555964
000310 0b e4 0b bc 57 68 ff bd d6 32 45 be 28 82 37 3d
       -0.008538256 -0.12471073 -0.19257674 0.04480186
000320 ac 91 11 3e c9 7d 00 bd 1a 07 ba bd 19 2b 65 be
       0.14215726 -0.031369958 -0.09083386 -0.22379722
000330 56 de 83 bd 3f 5d 76 bc 10 2d 93 3d 76 12 b7 bc
       -0.064388916 -0.01503688 0.07186329 -0.02234767
000340 0d 22 8f bd 37 80 1d 3d dd a8 4d be c0 a5 53 3d
       -0.069889165 0.038452353 -0.20083947 0.051671743
000350 64 74 8c bd 32 d6 6a bd 44 88 c2 bd c1 32 1e bd
       -0.06858137 -0.05733318 -0.09498647 -0.03862262
000360 1f 66 e8 bd c1 9f 03 3e 73 67 84 bd 73 bf a0 3d
       -0.11347603 0.1285391 -0.06465044 0.07849016
000370 eb 0b 2e 3e d3 af 15 be c7 85 41 be 70 3b 11 3e
       0.16996734 -0.14617853 -0.18898688 0.1418283
000380 48 b0 41 3e a7 00 52 ba d2 f3 46 3d 76 ee f9 3d
       0.18914902 -0.00080109615 0.04857237 0.12203686
000390 ad 58 a8 bd df f4 10 3e af 32 94 3d 23 4d e3 3d
       -0.082200386 0.14155911 0.0723623 0.11098697
0003a0 ab 69 28 3d 08 30 0f 3e 61 02 30 3e 87 11 9c bc
       0.041116398 0.13983166 0.17188407 -0.019051326
0003b0 f1 1b 9a bc 19 d1 89 bc 12 4e a9 3b 98 fd ff bd
       -0.018812152 -0.016823338 0.0051667774 -0.12499541
0003c0 c1 33 32 3e b2 65 99 3e b4 7b 99 3d d5 13 54 3e
       0.17402555 0.299604 0.074942976 0.2071069
0003d0 a5 93 2e 3e 3c 54 0d 3e 70 67 ad 3e 22 be 2e 3e
       0.1704851 0.13801664 0.3386798 0.17064717
0003e0 81 b9 6f 3e c2 bd 69 3b 8f d1 7e bd ed d1 46 3e
       0.23410608 0.0035666083 -0.06221157 0.19416018
0003f0 33 ca 1d be 69 eb b9 3d c8 2d 47 bb 24 ee b2 3d
       -0.15409164 0.09078104 -0.0030392278 0.08736828

fc.2.bias f4 [16]
000000 9a 27 46 be 6c 12 3a be 9f dd 50 3e 6c 48 a7 3d
       -0.19351044 -0.1817109 0.20397042 0.0816811
000010 38 7d 2b 3e fb 25 01 3e 54 20 eb ba 9c 48 90 3e
       0.16746986 0.12612145 -0.0017938712 0.28180397
000020 a8 02 34 be d2 a8 06 be 81 ec 88 3c a1 b8 f7 bd
       -0.17579138 -0.13150337 0.016714336 -0.12095762
000030 23 5d 38 be e1 57 74 3e 6d 40 1f 3e 57 de 25 bd
       -0.18004279 0.23861648 0.1555192 -0.040495243

fc.4.weight f4 [1, 16]
000000 68 08 3c bd c3 29 42 3d c4 c6 92 3e e5 7f ac bd
       -0.045906454 0.04740311 0.2866727 -0.084228314
000010 23 0d 97 3d 90 32 3a 3e 22 79 e6 bd 31 91 97 3e
       0.073755525 0.1818335 -0.11253573 0.2960296
000020 a2 4b 84 bd e1 ad 13 bc 4c b3 09 3d 1e d3 26 be
       -0.06459738 -0.009013624 0.033618256 -0.16291472
000030 ad f1 32 be 53 8f 4b 3e 4d 14 0e 3e 28 48 18 be
       -0.17475004 0.19878893 0.13874932 -0.14871275
