ai_engine/model.pth (torch, 5501 bytes, 5 tensors)

fc.0.weight f4 [32, 4]
0	0x3e97b838	0.29632735
1	0x3e96c0aa	0.29443866
2	0xbe558ab3	-0.20853691
3	0x3ef4a45f	0.47781655
4	0xbe3eb3f8	-0.1862334
5	0x3c299a6b	0.0103517575
6	0xbea22222	-0.31666666
7	0x3e523b78	0.20530498
8	0x3ed73e9b	0.42039952
9	0xbefc50d8	-0.4928043
10	0x3ec13f3c	0.37743556
11	0x3db7ca90	0.089741826
12	0x3eca9d46	0.39573115
13	0x3d1e2e8f	0.03861862
14	0x3e2745b6	0.16335186
15	0xbd966dd1	-0.073451646
16	0x3e5ff7a6	0.21871814
17	0x3f0dc595	0.5537961
18	0xbe9e5688	-0.30925393
19	0x3f1ed9ad	0.62050897
20	0xbeecab09	-0.4622424
21	0xbdab107b	-0.08352753
22	0xbe4bff48	-0.19921601
23	0x3e8c3f9f	0.2739229
24	0xbeca142a	-0.3946851
25	0xbe6c098c	-0.23050517
26	0xbe10936c	-0.14118737
27	0xbe99ecfe	-0.30063623
28	0xbc8ba4b2	-0.017046306
29	0xbf0dda0c	-0.5541084
30	0x3ec70993	0.38874492
31	0xbefacc05	-0.4898378
32	0x3e895049	0.26819065
33	0xbd3637b6	-0.044486724
34	0xbe942752	-0.2893625
35	0x3e476883	0.19473462
36	0x3d9f9758	0.077925384
37	0x3eced6b0	0.4039817
38	0x3d5fe300	0.054659843
39	0xbe217898	-0.15768659
40	0xbccf4326	-0.025300574
41	0xbe919afd	-0.2843856
42	0x3dc6264d	0.09675274
43	0x3edaf5af	0.42765567
44	0x3e42946d	0.19001932
45	0xbe826eb0	-0.25475073
46	0x3e871f48	0.26391053
47	0xbd336e0a	-0.043806113
48	0x3e4d254b	0.20033757
49	0xbebd7cf1	-0.37009385
50	0xbf12fae0	-0.57414055
51	0xbe8c6cd9	-0.27426794
52	0xbf638cbc	-0.8888662
53	0x3f11c9d7	0.5694861
54	0x3e80aaa5	0.2513019
55	0xbdbb891a	-0.091570094
56	0x3e259ae3	0.16172366
57	0xbd008e80	-0.0313859
58	0x3ec9ebd5	0.39437738
59	0xbe889411	-0.26675466
60	0x3d00f320	0.031481862
61	0xbeaebaf4	-0.3412701
62	0x3e1de050	0.154176
63	0xbe3052e0	-0.17219114
64	0x3ddd9136	0.108187124
65	0xbdc4db44	-0.09612134
66	0x3ed6f753	0.41985568
67	0xbec395e3	-0.38200292
68	0xbea5ea47	-0.32405302
69	0xbe907fa2	-0.28222376
70	0x3ee0056f	0.43754146
71	0x3e9eed53	0.3104044
72	0x3eba614b	0.36402354
73	0xbf427489	-0.7595907
74	0xbf02f4f3	-0.5115501
75	0xbea9ef36	-0.33190316
76	0xbf12804b	-0.5722701
77	0x3bfcb8d2	0.007712462
78	0x3da2ceb2	0.0794958
79	0x3eb9097d	0.3614005
80	0xbe120508	-0.14259732
81	0xbeb65cad	-0.3561758
82	0x3e8db7a8	0.2767918
83	0xbe0b3aea	-0.13596693
84	0x3e9b5f5c	0.3034619
85	0xbdf2fef0	-0.11865032
86	0x3e92719a	0.28602296
87	0xbec6e760	-0.388484
88	0xbeb563b1	-0.3542762
89	0x3df2ecd8	0.118615806
90	0x3d753256	0.059862457
91	0xbdcd4260	-0.10022426
92	0x3e4f266a	0.20229498
93	0x3e7d4101	0.24731828
94	0xbeeaaec8	-0.45836473
95	0xbebabc8f	-0.36471984
96	0x3eba986f	0.36444423
97	0xbe85f6f4	-0.26164973
98	0xbe8a88ac	-0.27057397
99	0xbf133117	-0.5749678
100	0xbe929a84	-0.2863351
101	0x3dffcc88	0.12490183
102	0xbd872938	-0.06599659
103	0xbeb9d3aa	-0.362943
104	0x3d2c0984	0.042001262
105	0xbf5abcc4	-0.85444283
106	0xbf23bf7e	-0.6396407
107	0x3d7933e2	0.060840495
108	0xbee00de6	-0.43760604
109	0xbea30144	-0.31836903
110	0x3effe65e	0.49980444
111	0x3dc16870	0.09443748
112	0x3dbab881	0.091172226
113	0xbf3f374d	-0.7469376
114	0xbf010a5f	-0.5040645
115	0x3d14e2f0	0.036349237
116	0x3f56ff97	0.8398375
117	0xbdaa3b59	-0.08312101
118	0xbe2d97fd	-0.1695251
119	0xbe98df7e	-0.2985801
120	0xbcf888c6	-0.030338656
121	0xbde7e73e	-0.11323403
122	0x3eb5d7e8	0.35516286
123	0xbf373c95	-0.71576816
124	0xbeafb798	-0.34319758
125	0xbe9559d2	-0.2917009
126	0xbe2f419c	-0.17114872
127	0xbeca0e50	-0.39464045

fc.0.bias f4 [32]
0	0x3eb6209d	0.35571757
1	0xbe3cab96	-0.1842483
2	0x3ecc9b6c	0.39962327
3	0x3e25699b	0.16153567
4	0xbf00270c	-0.5005958
5	0x3e5b20ac	0.21399182
6	0xbe0cdfc8	-0.13757241
7	0xbe825b11	-0.25460103
8	0xbf06193c	-0.52382255
9	0xbefe8150	-0.49708033
10	0x3d9beced	0.076135494
11	0xbe358936	-0.17728123
12	0x3dc02ce1	0.0938356
13	0xbe099f75	-0.13439734
14	0x3ed085af	0.40726992
15	0xbebbeaf2	-0.36702687
16	0xbd9c7b8e	-0.07640754
17	0x3e4f5946	0.20248899
18	0x3db1bec5	0.086789645
19	0x3e7740c4	0.241458
20	0x3ef661df	0.48121545
21	0xbecafcf2	-0.39646107
22	0x3dde3007	0.10849004
23	0xbe9e0937	-0.30866405
24	0xbe1775d7	-0.14791046
25	0xbebf9d0c	-0.37424505
26	0x3ec2c2f8	0.38039374
27	0xbebbe42e	-0.36697525
28	0x3e94226f	0.2893252
29	0xbb371714	-0.002793734
30	0x3eafb99b	0.34321293
31	0xbe8a67ca	-0.2703231

fc.2.weight f4 [16, 32]
0	0x3d8fdd22	0.070245996
1	0xbd55ce5b	-0.05219875
2	0xbd89ac81	-0.06722356
3	0xbe7c1182	-0.24616054
4	0xbc80e5c6	-0.015734565
5	0xbdf14bdf	-0.117820494
6	0xbda5dbd4	-0.080985695
7	0x3dbc0177	0.09179967
8	0xbd213479	-0.039356682
9	0xbdc84eb5	-0.09780637
10	0xbe35d8a6	-0.17758426
11	0xbdb31658	-0.08744496
12	0x3b3e2c75	0.0029018198
13	0xbdf0b342	-0.11752941
14	0xbe429a2c	-0.19004124
15	0xbd77f483	-0.06053592
16	0xbe5ab59a	-0.21358338
17	0xbcada972	-0.021198962
18	0x3d29bde4	0.04144086
19	0xbe8225d4	-0.25419486
20	0xbd4f392f	-0.050591644
21	0x3dbb06b5	0.09132139
22	0xbd6c094c	-0.057626054
23	0xbe16e132	-0.14734343
24	0x3ad6c6e4	0.0016386178
25	0x3dbe418f	0.09289848
26	0xbd008af7	-0.031382527
27	0xbcfe78c6	-0.031063449
28	0xbe13aa4d	-0.14420433
29	0xbdba4ffe	-0.090972885
30	0xbdffdc82	-0.124932304
31	0xbd57c69b	-0.05267964
32	0x3c999128	0.018745974
33	0x3d730562	0.059331305
34	0xbde759dd	-0.11296437
35	0xbe0970ac	-0.13421887
36	0xbc8d6edf	-0.017264782
37	0xbddb4657	-0.10706776
38	0x3d2e138c	0.04249911
39	0xbcb24656	-0.021762054
40	0xbe74a0ea	-0.23889509
41	0xbd859b1e	-0.06523727
42	0x3d5d1951	0.05397922
43	0xbcaf41cf	-0.021393685
44	0xbdce0e7a	-0.10061355
45	0xbe582886	-0.21109208
46	0xbe4f9c8a	-0.20274559
47	0xbe2226b0	-0.1583507
48	0xbe1b3a7e	-0.15159032
49	0xbd2e3aec	-0.04253666
50	0x3ca53881	0.020168545
51	0xbc5a5e0a	-0.013328085
52	0xbe8370a5	-0.25671878
53	0xbdd9b76a	-0.106306866
54	0xbe014e01	-0.12627412
55	0x3db49301	0.08817101
56	0xbd765aed	-0.060145307
57	0xbd3b83cd	-0.045779992
58	0xbcb5a5c3	-0.022173768
59	0xbd89e4d3	-0.06733098
60	0xbe547240	-0.20746708
61	0x3cdd21da	0.02699368
62	0xbe28292b	-0.16421954
63	0xbd112747	-0.03543785
64	0xbe34142d	-0.17585821
65	0x3df24d46	0.11831145
66	0x3e092582	0.13393214
67	0x3d83f1c0	0.064425945
68	0xbdfc70b3	-0.12326183
69	0xbe32a7bb	-0.17446797
70	0xbe130525	-0.14357431
71	0x3e06fc75	0.13182242
72	0x3dadd11d	0.08487151
73	0x3e18541d	0.14875837
74	0x3dbda941	0.09260798
75	0x3d374220	0.044740796
76	0xbae2e6b3	-0.0017311185
77	0xbe09aa92	-0.13443974
78	0xbe1b17a3	-0.15145735
79	0xbe2950f2	-0.16534784
80	0x3d943472	0.07236566
81	0xbdb1bfd8	-0.086791694
82	0xbd11b8f1	-0.035576764
83	0xbdd05aeb	-0.10173591
84	0xbd03f1a7	-0.03221288
85	0xbdfed0c1	-0.124421604
86	0xbdec8fce	-0.11550866
87	0x3d702f2d	0.05863874
88	0xbd573173	-0.052537393
89	0x3ddf808a	0.10913189
90	0xbd684a55	-0.056711514
91	0xbe04ca34	-0.1296776
92	0xbcff82c7	-0.03119029
93	0xbdaf7f4f	-0.08569204
94	0xbd5d867e	-0.05408334
95	0xbe2c5461	-0.16829063
96	0x3e1311d5	0.14362271
97	0xbce691f5	-0.02814577
98	0x3e098a81	0.13431741
99	0x3dc6f0b7	0.097138815
100	0xbf18d82f	-0.5970487
101	0x3c740665	0.014894103
102	0x3e023043	0.12713723
103	0xbc575556	-0.013142904
104	0x3e03042e	0.12794563
105	0x3e29ff77	0.16601358
106	0x3d586250	0.052828133
107	0x3d8825ab	0.066478096
108	0x3ccad918	0.024761721
109	0x3ecc5d1a	0.3991478
110	0x3db6afba	0.08920236
111	0xbe33b37d	-0.17548938
112	0xbcbedb7c	-0.023298018
113	0x3e5458af	0.20736955
114	0x3e56f402	0.20991519
115	0x3d2f3c00	0.04278183
116	0xbdc532ba	-0.09628816
117	0x3d22cb64	0.03974475
118	0x3dd1eeda	0.102506354
119	0xbdca4eef	-0.09878337
120	0x3d53e22e	0.051729374
121	0xbdd906ac	-0.10596976
122	0x3e6117b1	0.21981694
123	0xbdb23348	-0.08701187
124	0x3dfc11d5	0.12308089
125	0x3ee12b33	0.4397827
126	0xbf187843	-0.59558505
127	0x3e148719	0.1450466
128	0x3e1c18e5	0.15243872
129	0x3d9a8ac1	0.075459965
130	0x3c1d57a8	0.009603418
131	0xbdbd6fd5	-0.09249846
132	0xbf83871f	-1.0275611
133	0xbc95a0a3	-0.018265074
134	0x3d868e03	0.06570055
135	0xbe155bab	-0.1458575
136	0xbd949883	-0.07255652
137	0xbc61fab4	-0.013792682
138	0x3c8cbcd1	0.017179878
139	0x3c52dadc	0.012869563
140	0x3ccf08c7	0.02527274
141	0x3f0d716a	0.5525118
142	0xbd8bea58	-0.06831807
143	0xbdad58a4	-0.084641725
144	0xbe93e194	-0.2888304
145	0x3e9d6ba8	0.30746198
146	0xbd3d0f96	-0.046157442
147	0x3e0b5331	0.13605954
148	0x3cc3a83d	0.023883933
149	0x3c6b5b98	0.014365099
150	0x3e475fd9	0.19470157
151	0x3e1fef53	0.15618639
152	0xbd8f7a50	-0.07005751
153	0x3d8fb1b4	0.07016316
154	0x3ef6a63b	0.481737
155	0x3d3e7e20	0.046507
156	0x3ef1f8c3	0.47260103
157	0x3e98dc98	0.298558
158	0xbef8f8f8	-0.48627448
159	0x3d164915	0.03669079
160	0xbdc35241	-0.09537173
161	0x3d6e5e5f	0.058195468
162	0x3e2d99f8	0.16953266
163	0x3dcab7ed	0.09898362
164	0xbf5a65dc	-0.85311675
165	0x3cc963f2	0.02458379
166	0xbdf76771	-0.12080277
167	0xbdd510d8	-0.10403603
168	0xbdaf1680	-0.085492134
169	0xbd330ffc	-0.043716416
170	0x3e3f988f	0.1871054
171	0x3dc5439f	0.09632038
172	0xbd90a90c	-0.07063493
173	0x3ee431db	0.44569287
174	0x3db4b397	0.088233165
175	0xbe06a650	-0.1314938
176	0xbe179418	-0.14802587
177	0x3e1a1910	0.15048623
178	0xbd3dd668	-0.04634705
179	0x3d5b67b0	0.05356568
180	0x3cf40573	0.029787755
181	0xbd2b4dfd	-0.041822422
182	0xbdca3c75	-0.098748125
183	0xbd9f6265	-0.07782439
184	0xbd4fd976	-0.050744496
185	0xbdc1db9b	-0.094657145
186	0x3ede7db3	0.43455276
187	0xbdaedeb8	-0.08538574
188	0x3dcd365c	0.10020134
189	0x3f109921	0.56483656
190	0xbec01dbd	-0.37522689
191	0x3dc65d51	0.096857674
192	0x3e61819d	0.220221
193	0x3dc99c27	0.09844237
194	0xbe7eb317	-0.24873005
195	0x3ccd4c1d	0.025060708
196	0x3ed3a17c	0.4133414
197	0x3e99bcb2	0.30026776
198	0xbdd55783	-0.10417082
199	0x3e2c92ac	0.16852826
200	0xbd87699c	-0.0661194
201	0xbdce1fee	-0.10064684
202	0xbe126a7a	-0.1429843
203	0x3c015f8e	0.007896317
204	0x3da06e6b	0.078335606
205	0xbd9c4d6e	-0.07631956
206	0xbd208643	-0.039190542
207	0xbe094865	-0.13406523
208	0xbe9a72b7	-0.30165645
209	0xbd7f53ea	-0.062335886
210	0x3c32a854	0.01090439
211	0x3e35c8fc	0.1775245
212	0xbeb68527	-0.35648462
213	0xbcbbfb9c	-0.022947125
214	0xbee5261b	-0.44755635
215	0xbdaea7eb	-0.085281216
216	0x3d032114	0.032013968
217	0x3dc524dd	0.09626172
218	0x3ec7bb6b	0.39010176
219	0xbe2631e8	-0.16229975
220	0x3e9d4b6c	0.30721605
221	0x3d36bb32	0.044612117
222	0xbd89934d	-0.067175485
223	0x3e192fcf	0.14959644
224	0x3d98aea3	0.07455184
225	0x3e24b16a	0.16083303
226	0xbe767402	-0.24067691
227	0xbde2db99	-0.11077041
228	0x3ed48c63	0.41513357
229	0x3e6023ca	0.21888652
230	0xbd143803	-0.03618623
231	0xbd96e50b	-0.07367905
232	0x3df98e34	0.12185326
233	0x3db194c4	0.08670953
234	0x3d8cd5c7	0.06876712
235	0xbe3afe0d	-0.18260975
236	0xbe88ce79	-0.26720026
237	0xbe36b45d	-0.1784224
238	0xbdaa8f46	-0.083281085
239	0xbda72855	-0.081619896
240	0xbd7ac926	-0.061226986
241	0x3d2376ce	0.039908223
242	0xbe3af0b5	-0.18255885
243	0x3d492912	0.049111433
244	0xbe503aff	-0.20335005
245	0xbe23ede3	-0.16008715
246	0xbf09c0b8	-0.5380969
247	0xbdad0f58	-0.08450192
248	0xbdb80831	-0.089859374
249	0x3d6196c2	0.055075414
250	0x3e406344	0.18787867
251	0xbd8da335	-0.06915895
252	0x3e9fd6ba	0.3121851
253	0x3b219f9e	0.002466179
254	0x3dd71bfa	0.10503383
255	0xbdaf447d	-0.08557985

fc.2.bias f4 [16]
0	0x3dae4bbb	0.08510538
1	0xbbabdb1d	-0.005244626
2	0xbe03a1f4	-0.12854749
3	0x3e3dda4b	0.18540303
4	0xbc086fe4	-0.008327458
5	0xba07e322	-0.0005183687
6	0xbe193feb	-0.14965789
7	0xbd2bde49	-0.041960035
8	0x3e2afb46	0.16697416
9	0x3d8bf9a4	0.068347245
10	0xbdd2def0	-0.10296428
11	0x3b578890	0.0032887794
12	0xbc469de6	-0.012122607
13	0x3de19107	0.1101399
14	0xbe640123	-0.22266059
15	0xbe174a2b	-0.14774387

fc.4.weight f4 [1, 16]
0	0xbe2501bd	-0.16113944
1	0xbc3184ad	-0.010834855
2	0x3da16824	0.078811914
3	0x3e8d367e	0.27580637
4	0x3e2571d2	0.161567
5	0x3e963cb1	0.2934318
6	0x3f1a812d	0.60353357
7	0x3f14b961	0.58095366
8	0x3ebc44ed	0.36771336
9	0x3e836ef4	0.25670588
10	0xbe0f4a0e	-0.13993093
11	0x3e370f20	0.17876863
12	0x3e27b178	0.16376293
13	0xbd891b04	-0.06694606
14	0xbd5da97b	-0.054116707
15	0xbdfc84d5	-0.12330023
