ai_engine/model.pth (torch, 5364 bytes, 5 tensors)

fc.0.weight f4 [32, 6]
0.36598998 0.15167469 -0.34642187 -0.27090085 0.1614269 -0.2567049 0.047452033 -0.35007456
0.27982867 0.0014805496 -0.0039891303 -0.28875887 0.06158948 -0.12536743 0.20701122 -0.15719393
-0.11976591 0.08315486 -0.26894802 -0.26165038 -0.23449337 -0.25130385 -0.32023808 0.33443117
-0.16784793 0.1752094 0.2942744 -0.37688684 -0.084154874 0.19074792 -0.1767222 -0.0791899
-0.03272146 -0.32473907 0.083434105 0.2664202 -0.056472093 0.2661382 -0.23455673 -0.05318013
0.19136828 -0.056354374 0.045912206 -0.37608024 0.25464404 -0.27308577 0.052898258 0.08735174
-0.26981843 0.31749147 -0.25459975 -0.35336906 -0.14523232 -0.34531292 -0.35218364 0.2798925
-0.14381501 -0.34851465 -0.04302153 -0.12275982 -0.1545611 -0.20912468 0.37937647 0.2716406
-0.20250787 -0.23095495 -0.1609778 0.20440912 -0.21257961 0.2256487 -0.24760573 -0.09356281
-0.33877325 0.051356286 -0.3248036 0.1297363 0.35787678 0.012402505 0.006736934 -0.2514776
0.29449755 -0.14692914 -0.16952737 0.29916513 0.23486638 0.19718838 0.033649832 0.06088406
-0.2130267 -0.34733498 -0.31834412 0.16539884 -0.26818028 0.16489679 -0.3860926 0.351313
-0.08174074 -0.15071604 0.17412746 -0.1590941 0.1075027 0.40765184 -0.39520788 0.027783096
-0.30069232 -0.35021597 0.11004442 0.26653463 -0.15530485 0.34558946 0.30697376 -0.38457444
0.18646222 0.22805464 0.025816083 0.33810347 0.28884214 0.06776515 0.16661489 0.13908362
0.14706868 0.17143661 0.19328749 0.041125298 -0.24459396 0.26099807 0.40814412 0.063984096
0.40789932 -0.33626845 -0.19280562 -0.10979307 0.18086869 -0.36313397 0.33672386 0.1786856
-0.35996115 0.31876385 0.29466712 0.069799066 -0.2054148 0.07716021 0.15911168 0.25821602
0.26451796 0.25496668 0.12500507 -0.03400269 -0.064979285 -0.14541945 0.38179332 -0.37994573
0.3534072 0.24042314 0.12725538 -0.18644524 -0.3943646 0.09951085 -0.39908642 -0.12418282
-0.2342771 -0.30316314 -0.0045034885 0.01670301 0.08155784 -0.2956698 -0.3435437 -0.03434503
-0.022006005 -0.3725459 -0.36364505 -0.19384782 0.08005184 -0.17028089 -0.35987413 0.06401822
0.30254936 -0.06352031 -0.28709602 -0.2899555 -0.11696887 0.40109795 0.1287759 0.009059995
0.1779316 -0.13428867 -0.12036267 0.2619576 0.31409597 -0.054268986 -0.12714046 0.30466497
00000000: 0a63 bb3e 9c50 1b3e 355e b1be 84b3 8abe
00000010: 184d 253e d36e 83be 105d 423d f93c b3be
00000020: b445 8f3e 000f c23a 40b7 82bb 34d8 93be
00000030: 4045 7c3d 5260 00be c0fa 533e 72f7 20be
00000040: d447 f5bd 184d aa3d 8eb3 89be 0af7 85be
00000050: 081f 70be e6aa 80be 3ff6 a3be 903a ab3e
00000060: 54e0 2bbe 186a 333e 22ab 963e 50f7 c0be
00000070: 6459 acbd 6c53 433e aaf6 34be 502e a2bd
00000080: f006 06bd 3344 a6be 80df aa3d 3a68 883e
00000090: 484f 67bd 4443 883e a42f 70be 68d3 59bd
000000a0: 0cf6 433e d8d3 66bd 700e 3c3d 978d c0be
000000b0: b460 823e e6d1 8bbe d8ab 583d 78e5 b23d
000000c0: a425 8abe 3e8e a23e e65a 82be caec b4be
000000d0: c8b7 14be dbcc b0be 6a51 b4be 124e 8f3e
000000e0: 3e44 13be 8370 b2be 5837 30bd 8069 fbbd
000000f0: 4445 1ebe c824 56be a23d c23e 7a14 8b3e
00000100: 395e 4fbe 747f 6cbe 5dd7 24be a050 513e
00000110: 78ae 59be 7410 673e 5b8c 7dbe dc9d bfbd
00000120: b073 adbe f85a 523d a84c a6be 98d9 043e
00000130: a03b b73e e033 4b3c 80c1 dc3b acc1 80be
00000140: 62c8 963e 9874 16be 9598 2dbe 2c2c 993e
00000150: d080 703e c0eb 493e 68d4 093d 9061 793d
00000160: ac23 5abe e4d5 b1be 00fe a2be 505e 293e
00000170: ed4e 89be b4da 283e eead c5be 4cdf b33e
00000180: b067 a7bd 4e55 1abe 784e 323e 90e9 22be
00000190: 602a dc3d beb7 d03e b058 cabe 6099 e33c
000001a0: 58f4 99be 824f b3be f85e e13d 3a77 883e
000001b0: 3c08 1fbe 1af1 b03e aa2b 9d3e f1e6 c4be
000001c0: f4ef 3e3e 2887 693e 407c d33c e61b ad3e
000001d0: 1ee3 933e 74c8 8a3d 189d 2a3e f06b 0e3e
000001e0: 2c99 163e 148d 2f3e 28ed 453e 0073 283d
000001f0: d776 7abe 8aa1 853e 44f8 d03e 180a 833d
00000200: 2ed8 d03e 612b acbe d66e 45be 30db e0bd
00000210: a435 393e b2ec b9be 1267 ac3e 5cf9 363e
00000220: d44c b8be 0435 a33e 9cde 963e d0f2 8e3d
00000230: 4258 52be 2c06 9e3d 2cee 223e e434 843e
00000240: e66e 873e fe8a 823e 5401 003e 6846 0bbd
00000250: dc13 85bd d6e8 14be 6a7a c33e 3f88 c2be
00000260: caf1 b43e 7c31 763e 3c4f 023e 80eb 3ebe
00000270: 28ea c9be 58cc cb3d 0e55 ccbe 9053 febd
00000280: 56e6 6fbe 3338 9bbe 0092 93bb c0d4 883c
00000290: cc07 a73d 0862 97be f6e4 afbe 60ad 0cbd
000002a0: f045 b4bc 56be bebe af2f babe 0b80 46be
000002b0: 38f2 a33d 1d5e 2ebe 6c41 b8be fc1b 833d
000002c0: c0e7 9a3e f016 82bd 40fe 92be 0c75 94be
000002d0: 608d efbd b65c cd3e d4dd 033e 6070 143c
000002e0: b433 363e f882 09be b480 f6bd 4e1f 863e
000002f0: 30d1 a03e 2849 5ebd 1c31 02be 0cfd 9b3e

fc.0.bias f4 [32]
-0.17709543 -0.3151671 0.15755808 0.3232252 0.23110145 -0.36067337 0.18531764 -0.27474424
0.022453487 -0.07216376 0.40518588 0.13447231 -0.18523128 0.10706133 -0.18497276 0.21147239
-0.068064034 -0.10707781 -0.17331609 0.18203223 0.026603281 0.23691219 -0.3871495 -0.25461346
0.020446181 0.07057729 0.38041443 -0.1011253 -0.35985905 0.119902134 -0.21301955 0.388479
00000000: 8158 35be 955d a1be e856 213e c67d a53e
00000010: dca5 6c3e 2eaa b8be e8c3 3d3e 47ab 8cbe
00000020: 60f0 b73c 98ca 93bd 8674 cf3e 1cb3 093e
00000030: 45ad 3dbe f842 db3d 8069 3dbe 388c 583e
00000040: 2865 8bbd 9c4b dbbd c679 31be a866 3a3e
00000050: 20ef d93c 1c99 723e 7638 c6be b25c 82be
00000060: c07e a73c d48a 903d aec5 c23e c81a cfbd
00000070: 723f b8be 408f f53d cc21 5abe b8e6 c63e

fc.2.weight f4 [16, 32]
-0.08696174 0.08034472 -0.045200154 -0.078670755 -0.029983312 0.15253653 0.14735572 -0.13313787
0.022763476 0.16731147 0.15056722 0.026178673 0.022344723 0.13051887 0.16566308 -0.14992678
-0.11718672 -0.16929932 -0.1410596 0.0964482 0.07791819 0.0022716671 -0.12851647 -0.069236815
0.16690992 -0.1461035 -0.05879087 -0.080266036 0.1421326 0.085789874 0.0015805662 0.13807915
0.022378772 -0.07221148 -0.008007571 -0.11621018 0.07953735 0.09284507 0.077389374 -0.05555871
0.04460293 0.13268147 0.086775795 0.051959693 -0.10472177 0.116908535 0.058479622 0.12703805
0.005737096 -0.13795416 -0.16147058 -0.055239365 -0.110131696 -0.011077166 0.055948704 0.02000682
0.023056388 0.039818168 -0.10541376 0.042128175 -0.050677538 -0.15447865 -0.031139374 0.15152545
0.1633306 0.16415803 0.020480648 -0.03202647 0.05097039 0.105638966 -0.07378883 0.072267115
0.07982905 0.06805639 -0.003754273 0.16086034 -0.14868434 -0.0676537 -0.011382446 -0.10380225
0.09425707 -0.074720144 -0.015732452 0.051272124 0.016574413 -0.0770008 0.16868375 -0.16122551
-0.13232951 -0.1261133 0.104261115 -0.037486374 -0.17111325 0.11974342 0.08811082 -0.15846431
0.16711308 -0.061533853 -0.006875515 0.13848804 0.11740075 -0.0015265942 -0.14480603 -0.047246933
-0.14553928 -0.14502591 -0.024000436 0.16592167 -0.0015642792 -0.011451781 0.047439292 0.1343457
0.06000203 -0.09983071 -0.08896266 0.05703044 -0.12329696 0.09429969 0.08256538 -0.046838537
-0.116276175 -0.16281465 0.045334205 0.111122236 0.09207703 0.15350352 -0.10716371 -0.08675724
-0.11033617 0.07013273 0.14090647 -0.0014384091 -0.17257777 0.089205876 -0.17626782 -0.0637367
-0.11699196 0.013448656 -0.017218187 0.13247229 0.04957995 -0.1272238 0.016152143 -0.13247435
-0.028173327 0.058863282 0.16254015 0.017217323 0.117353365 0.16874518 0.008956894 0.1326295
-0.10345471 -0.14674407 0.14444225 0.16477768 -0.056957252 -0.1247761 -0.11332057 0.04054819
0.062239498 0.008757651 0.06315684 0.1054969 -0.09255709 0.015298963 -0.13522491 -0.024916708
0.10251443 -0.13219938 -0.10506653 -0.10964391 0.17404188 0.035401225 -0.030764803 0.08261253
0.1397612 0.17651592 -0.10876411 -0.10079115 -0.050421894 -0.011511669 0.10328971 -0.1362822
0.16040047 -0.11733067 -0.054538146 0.04944527 -0.0007394701 0.027304247 -0.04658474 0.16951899
0.10683675 0.10302596 -0.16838276 0.13230191 0.05286117 0.0944653 -0.09915457 0.07748224
-0.14984646 -0.04917991 0.054385513 -0.13801451 -0.022783399 0.007459298 -0.07265204 0.16720928
-0.029762924 0.024862051 -0.12707105 -0.05598522 -0.0029750466 0.036210373 -0.15514311 0.1627724
0.07677512 -0.046418816 0.029668912 0.078348175 0.12982918 -0.13514543 0.16114734 0.1652971
0.13880356 -0.14283112 -0.09346089 0.16593866 0.028955892 0.09306814 -0.08579465 0.13960664
0.11698742 0.06704779 -0.07135712 0.1155303 0.15387629 -0.14006704 0.13235168 -0.08981961
-0.14002892 -0.019225895 -0.12820715 -0.12052268 -0.085652575 -0.054142497 -0.024243206 -0.06472548
0.06958911 0.048653483 0.050394192 0.15518226 -0.16565062 0.11205618 -0.045187727 -0.11393787
00000000: ff18 b2bd c68b a43d cc23 39bd 221e a1bd
00000010: 909f f5bc 8932 1c3e 6be4 163e 4b55 08be
00000020: 787a ba3c b353 2b3e 4b2e 1a3e a874 d63c
00000030: 480c b73c bda6 053e 95a3 293e 6886 19be
00000040: 97ff efbd cd5c 2dbe ee71 10be a286 c53d
00000050: 9293 9f3d 40e0 143b d299 03be 08cc 8dbd
00000060: 6fea 2a3e 289c 15be b2ce 70bd 8562 a4bd
00000070: 358b 113e 9ab2 af3d 002b cf3a 9f64 0d3e
00000080: b053 b73c 9de3 93bd 3032 03bc 9aff edbd
00000090: 7ae4 a23d 8e25 be3d 527e 9e3d 8891 63bd
000000a0: 90b1 363d a7dd 073e 82b7 b13d b0d3 543d
000000b0: 5e78 d6bd be6d ef3d 5488 6f3d 4316 023e
000000c0: 40fe bb3b db43 0dbe 8b58 25be ac42 62bd
000000d0: ba8c e1bd 007d 35bc 782a 653d 58e5 a33c
000000e0: c0e0 bc3c 6018 233d 2be3 d7bd 988e 2c3d
000000f0: 4093 4fbd a72f 1ebe 0018 ffbc 7d29 1b3e
00000100: 2340 273e 0b19 283e 08c7 a73c 302e 03bd
00000110: 54c6 503d 3e59 d83d 991e 97bd c800 943d
00000120: 6a7d a33d 2661 8b3d 400a 76bb 93b8 243e
00000130: b540 18be 068e 8abd 707d 3abc 4696 d4bd
00000140: da09 c13d e006 99bd 58e1 80bc b802 523d
00000150: 10c7 873c 98b2 9dbd 6fbb 2c3e 4d18 25be
00000160: 6381 07be d823 01be da86 d53d 508b 19bd
00000170: 5038 2fbe 0a3c f53d 7273 b43d 7844 22be
00000180: b11f 2b3e ec0a 7cbd 004c e1bb cfcf 0d3e
00000190: ce6f f03d 0018 c8ba 0848 14be 0086 41bd
000001a0: 4008 15be ac81 14be 909c c4bc 5fe7 293e
000001b0: 8008 cdba 40a0 3bbc b44f 423d eb91 093e
000001c0: b0c4 753d 0b74 ccbd 0e32 b6bd c098 693d
000001d0: 1e83 fcbd 3220 c13d 0a18 a93d c4d9 3fbd
000001e0: 3422 eebd e2b8 26be 5cb0 393d 0e94 e33d
000001f0: e292 bc3d 0730 1d3e a678 dbbd c8ad b1bd
00000200: eef7 e1bd c0a1 8f3d c949 103e 0089 bcba
00000210: 3ab8 30be 92b1 b63d 8d7f 34be 6388 82bd
00000220: 7b99 efbd c057 5c3c 280d 8dbc d1a6 073e
00000230: 5814 4b3d f546 02be 8051 843c 5ba7 07be
00000240: c0cb e6bc a01a 713d ed70 263e 580b 8d3c
00000250: f656 f03d 89cb 2c3e f0bf 123c 07d0 073e
00000260: 10e0 d3bd 1444 16be abe8 133e 7bbb 283e
00000270: 024c 69bd 9d8a ffbd 9d14 e8bd dc15 263d
00000280: d8ee 7e3d 407c 0f3c 6058 813d c20e d83d
00000290: 928e bdbd 80a8 7a3c 6678 0abe 201e ccbc
000002a0: 16f3 d13d 465f 07be 1f2d d7bd fc8c e0bd
000002b0: 0938 323e e000 113d 7806 fcbc c230 a93d
000002c0: 8f1d 0f3e 97c0 343e b8bf debd 976b cebd
000002d0: 3087 4ebd 709b 3cbc 8e89 d33d 908d 0bbe
000002e0: 0540 243e 104b f0bd 6463 5fbd 2087 4a3d
000002f0: 00d9 41ba 28ad df3c a4cf 3ebd 6396 2d3e
00000300: 3acd da3d 46ff d23d 886c 2cbe 277a 073e
00000310: f484 583d 0677 c13d 8d11 cbbd 02af 9e3d
00000320: 5a71 19be e070 49bd 58c3 5e3d ad53 0dbe
00000330: 40a4 babc 206d f43b 98ca 94bd e938 2b3e
00000340: 60d1 f3bc 80ab cb3c ea1e 02be c250 65bd
00000350: 00f9 42bb 5451 143d d6dd 1ebe cfad 263e
00000360: 463c 9d3d a821 3ebd 380c f33c 0275 a03d
00000370: f1f1 043e 9063 0abe cf03 253e a543 293e
00000380: 8522 0e3e 5242 12be 6c68 bfbd d3eb 293e
00000390: e834 ed3c 829a be3d 1bb5 afbd 0bf5 0e3e
000003a0: 1a97 ef3d 5a50 893d af23 92bd 269b ec3d
000003b0: bf91 1d3e bc6d 0fbe 3387 073e 58f3 b7bd
000003c0: be63 0fbe a07f 9dbc bc48 03be 98d4 f6bd
000003d0: 9e6a afbd 86c4 5dbd b099 c6bc cb8e 84bd
000003e0: bc84 8e3d e048 473d 246a 4e3d 19e8 1e3e
000003f0: 51a0 29be b67d e53d c416 39bd 4258 e9bd

fc.2.bias f4 [16]
-0.08008548 -0.102889135 -0.14122926 0.17193626 -0.07429805 0.011431977 -0.083738096 -0.15346032
0.009630561 -0.039579704 0.019501492 -0.14879078 -0.14069435 -0.08146035 0.0022867024 -0.11129762
00000000: db03 a4bd 8ab7 d2bd 679e 10be 0f10 303e
00000010: 9329 98bd 304d 3b3c e17e abbd b424 1dbe
00000020: 80c9 1d3c 541e 22bd 98c1 9f3c 9c5c 18be
00000030: 2e12 10be afd4 a6bd 80dc 153b 02f0 e3bd

fc.4.weight f4 [1, 16]
0.1919212 0.003263235 0.19842371 -0.073717535 0.14323825 0.071911216 0.051015466 0.13752124
-0.047713727 -0.1190677 0.06758028 0.09224889 0.16520742 -0.17008433 -0.05200711 0.18308371
00000000: fe86 443e 00dc 553b 962f 4b3e 38f9 96bd
00000010: 0cad 123e 3046 933d 98f5 503d 5ed2 0c3e
00000020: 786f 43bd c4d9 f3bd 8867 8a3d fcec bc3d
00000030: 222c 293e 962a 2ebe 6805 55bd 4c7a 3b3e
